…
 takes as input tensors of shape (image_height, image_width,image_channels), not including the batch dimension. In this case, we’ll configure theconvnet to process inputs of size (28, 28, 1), which is the format of MNIST images. Let’s display the architecture of our convnet.>>> model.summary()Model: \"model\" _________________________________________________________________Layer (type) Output Shape Param # ================================================================= input_1 (InputLayer) [(None, 28, 28, 1)] 0 _________________________________________________________________conv2d (Conv2D) (None, 26, 26, 32) 320 _________________________________________________________________max_pooling2d (MaxPooling2D) (None, 13, 13, 32) 0 _________________________________________________________________conv2d_1 (Conv2D) (None, 11, 11, 64) 18496 _________________________________________________________________max_pooling2d_1 (MaxPooling2 (None, 5, 5, 64) 0 _________________________________________________________________conv2d_2 (Conv2D) (None, 3, 3, 128) 73856 _________________________________________________________________flatten (Flatten) (None, 1152) 0 _________________________________________________________________dense (Dense) (None, 10) 11530 =================================================================Total params: 104,202 Trainable params: 104,202 Non-trainable params: 0 _________________________________________________________________You can see that the output of every Conv2D and MaxPooling2D layer is a rank-3 tensorof shape (height, width, channels). The width and height dimensions tend toshrink as you go deeper in the model.
…
ctivation=\"relu\")(x)x = layers.Conv2D(filters=128, kernel_size=3, activation=\"relu\")(x)x = layers.Flatten()(x)outputs = layers.Dense(10, activation=\"softmax\")(x)model_no_max_pool = keras.Model(inputs=inputs, outputs=outputs)Here’s a summary of the model:>>> model_no_max_pool.summary()Model: \"model_1\" _________________________________________________________________Layer (type) Output Shape Param # =================================================================input_2 (InputLayer) [(None, 28, 28, 1)] 0 _________________________________________________________________conv2d_3 (Conv2D) (None, 26, 26, 32) 320 _________________________________________________________________conv2d_4 (Conv2D) (None, 24, 24, 64) 18496 _________________________________________________________________conv2d_5 (Conv2D) (None, 22, 22, 128) 73856 _________________________________________________________________flatten_1 (Flatten) (None, 61952) 0 _________________________________________________________________dense_1 (Dense) (None, 10) 619530 =================================================================Total params: 712,202 Trainable params: 712,202 Non-trainable params: 0 _________________________________________________________________What’s wrong with this setup? Two things:It isn’t conducive to learning a spatial hierarchy of features. The 3 × 3 windowsin the third layer will only contain information coming from 7 × 7 windows
…
D(filters=256, kernel_size=3, activation=\"relu\")(x)x = layers.Flatten()(x)outputs = layers.Dense(1, activation=\"sigmoid\")(x)model = keras.Model(inputs=inputs, outputs=outputs)Let’s look at how the dimensions of the feature maps change with every successivelayer:>>> model.summary()Model: \"model_2\" _________________________________________________________________Layer (type) Output Shape Param # =================================================================input_3 (InputLayer) [(None, 180, 180, 3)] 0 _________________________________________________________________rescaling (Rescaling) (None, 180, 180, 3) 0 _________________________________________________________________conv2d_6 (Conv2D) (None, 178, 178, 32) 896 _________________________________________________________________max_pooling2d_2 (MaxPooling2 (None, 89, 89, 32) 0 _________________________________________________________________conv2d_7 (Conv2D) (None, 87, 87, 64) 18496 _________________________________________________________________max_pooling2d_3 (MaxPooling2 (None, 43, 43, 64) 0 _________________________________________________________________conv2d_8 (Conv2D) (None, 41, 41, 128) 73856 _________________________________________________________________max_pooling2d_4 (MaxPooling2 (None, 20, 20, 128) 0 _________________________________________________________________conv2d_9 (Conv2D) (None, 18, 18, 256) 295168 _________________________________________________________________max_pooling2d_5 (MaxPooling2 (None, 9, 9, 256) 0 _________________________________________________________________conv2d_10 (Conv2D) (None, 7, 7, 256) 590080 _________________________________________________________________flatten_2 (Flatten) (None, 12544) 0 _________________________________________________________________dense_2 (Dense) (None, 1) 12545 =================================================================Total params: 991,041 Trainable params: 991,041 Non-trainable params: 0 _________________________________________________________________The modelexpectsRGB imagesof size180 × 180.Rescale inputs to the [0, 1] range by dividing them by 255. 217Training a convnet from scratch on a small datasetFor the compilation step, we’ll go with t
…
can visualize (in the follow-ing summary) how the size of the feature maps shrinks with each new convolu-tion and pooling layer.Here’s the detail of the architecture of the VGG16 convolutional base. It’s similar tothe simple convnets you’re already familiar with:>>> conv_base.summary()Model: \"vgg16\" _________________________________________________________________Layer (type) Output Shape Param # =================================================================input_19 (InputLayer) [(None, 180, 180, 3)] 0 _________________________________________________________________block1_conv1 (Conv2D) (None, 180, 180, 64) 1792 _________________________________________________________________block1_conv2 (Conv2D) (None, 180, 180, 64) 36928 _________________________________________________________________block1_pool (MaxPooling2D) (None, 90, 90, 64) 0 _________________________________________________________________block2_conv1 (Conv2D) (None, 90, 90, 128) 73856 _________________________________________________________________Listing 8.19 Instantiating the VGG16 convolutional base 228CHAPTER 8Introduction to deep learning for computer visionblock2_conv2 (Conv2D) (None, 90, 90, 128) 147584 _________________________________________________________________block2_pool (MaxPooling2D) (None, 45, 45, 128) 0 _________________________________________________________________block3_conv1 (Conv2D) (None, 45, 45, 256) 295168 _________________________________________________________________block3_conv2 (Conv2D) (None, 45, 45, 256) 590080 _________________________________________________________________block3_conv3 (Conv2D) (None, 45, 45, 256) 590080 _________________________________________________________________block3_pool (MaxPooling2D) (None, 22, 22, 256) 0 _________________________________________________________________block4_conv1 (Conv2D) (None, 22, 22, 512) 1180160 _________________________________________________________________block4_conv2 (Conv2D) (None, 22, 22, 512) 2359808 _________________________________________________________________block4_conv3 (Conv2D) (None, 22, 22, 512) 2359808 _________________________________________________________________block4_pool (MaxPooling2D) (None, 11, 11, 512) 0 _________________________________________________________________block5_conv1 (Conv2D) (None, 11, 11, 512) 2359808 _________________________________________________________________block5_conv2 (Conv2D) (None, 11, 11, 512) 2359808 _________________________________________________________________block5_conv3 (Conv2D) (None, 11, 11, 512) 2359808 _________________________________________________________________block5_pool (MaxPooling2D) (None, 5, 5, 512) 0 =================================================================Total params: 14,714,688 Trainable params: 14,714,688 Non-trainable params: 0 _________________________________________________________________The final feature map has shape (5, 5, 512). That’s the feature map on top of whichwe’ll stick a densely connected classifier. At this point, there are two ways we could proceed:Run the conv
…
relu\", padding=\"same\", strides=2)(x) outputs = layers.Conv2D(num_classes, 3, activation=\"softmax\", padding=\"same\")(x) model = keras.Model(inputs, outputs) return model model = get_model(img_size=img_size, num_classes=3)model.summary()Here’s the output of the model.summary() call:Model: \"model\" _________________________________________________________________Layer (type) Output Shape Param # =================================================================input_1 (InputLayer) [(None, 200, 200, 3)] 0 _________________________________________________________________rescaling (Rescaling) (None, 200, 200, 3) 0 _________________________________________________________________conv2d (Conv2D) (None, 100, 100, 64) 1792 _________________________________________________________________conv2d_1 (Conv2D) (None, 100, 100, 64) 36928 _________________________________________________________________conv2d_2 (Conv2D) (None, 50, 50, 128) 73856 _________________________________________________________________conv2d_3 (Conv2D) (None, 50, 50, 128) 147584 _________________________________________________________________Don’t forget torescale inputimages to the[0-1] range.Note how we usepadding=\"same\"everywhere to avoidthe influence of borderpadding on featuremap size. We end the modelwith a per-pixel three-waysoftmax to classify eachoutput pixel into one ofour three categories. 245An image segmentation exampleconv2d_4 (Conv2D) (None, 25, 25, 256) 295168 _________________________________________________________________conv2d_5 (Conv2D) (None, 25, 25, 256) 590080 _________________________________________________________________conv2d_transpose (Conv2DTran (None, 25, 25, 256) 590080 _________________________________________________________________conv2d_transpose_1 (Conv2DTr (None, 50, 50, 256) 590080 _________________________________________________________________conv2d_transpose_2 (Conv2DTr (None, 50, 50, 128) 295040 _________________________________________________________________conv2d_transpose_3 (Conv2DTr (None, 100, 100, 128) 147584 _________________________________________________________________conv2d_transpose_4 (Conv2DTr (None, 100, 100, 64) 73792 _________________________________________________________________conv2d_transpose_5 (Conv2DTr (None, 200, 200, 64) 36928 _________________________________________________________________conv2d_6 (Conv2D) (None, 200, 200, 3) 1731 =================================================================Total params: 2,880,643 Trainable params: 2,880,643 Non-trainable params: 0 _________________________________________________________________The first half of the model closely resembles the kind of convnet you’d use for imageclassification: a stack of Conv2D layers, with gradually increasing filter sizes. We down-sample our images 
…
lobalAveragePooling2D()(x)outputs = layers.Dense(1, activation=\"sigmoid\")(x)model = keras.Model(inputs=inputs, outputs=outputs)model.summary()This is the model summary we get:Model: \"model\" __________________________________________________________________________________________________Layer (type) Output Shape Param # Connected to ==================================================================================================input_1 (InputLayer) [(None, 32, 32, 3)] 0 __________________________________________________________________________________________________rescaling (Rescaling) (None, 32, 32, 3) 0 input_1[0][0] __________________________________________________________________________________________________conv2d (Conv2D) (None, 32, 32, 32) 896 rescaling[0][0] __________________________________________________________________________________________________conv2d_1 (Conv2D) (None, 32, 32, 32) 9248 conv2d[0][0]__________________________________________________________________________________________________max_pooling2d (MaxPooling2D) (None, 16, 16, 32) 0 conv2d_1[0][0]__________________________________________________________________________________________________conv2d_2 (Conv2D) (None, 16, 16, 32) 128 rescaling[0][0]__________________________________________________________________________________________________add (Add) (None, 16, 16, 32) 0 max_pooling2d[0][0] conv2d_2[0][0]__________________________________________________________________________________________________conv2d_3 (Conv2D) (None, 16, 16, 64) 18496 add[0][0]__________________________________________________________________________________________________conv2d_4 (Conv2D) (None, 16, 16, 64) 36928 conv2d_3[0][0]__________________________________________________________________________________________________max_pooling2d_1 (MaxPooling2D) (None, 8, 8, 64) 0 conv2d_4[0][0]__________________________________________________________________________________________________conv2d_5 (Conv2D) (None, 8, 8, 64) 2112 add[0][0]__________________________________________________________________________________________________add_1 (Add) (None, 8, 8, 64) 0 max_pooling2d_1[0][0] conv2d_5[0][0]__________________________________________________________________________________________________conv2d_6 (Conv2D) (None, 8, 8, 128) 73856 add_1[0][0]__________________________________________________________________________________________________conv2d_7 (Conv2D) (None, 8, 8, 128) 147584 conv2d_6[0][0]__________________________________________________________________________________________________If we use max pooling, we add a strided convolution to project the residual to the expected shape.If we don’t use max pooling, we only project the residual if the number of channels has changed.FirstblockSecond block; note the increasing filter count in each block.The last block doesn’t need a maxpooling layer, since we will applyglobal average pooling right after it. 255Modern convnet architecture patternsconv2d_8 (Conv2D) (None, 8, 8, 128) 8320 add_1[0][0]__________________________________________________________________________________________________add_2 (Add) (None, 8, 8, 128) 0 conv2d_7[0][0] conv2d_8[0][0]__________________________________________________________________________________________________global_average_pooling2d (Globa (None, 128) 0 add_2[0][0]__________________________________________________________________________________________________dense (Dense) (None, 1) 129 global_average_pooling2d[0][0]==================================================================================================Total params: 297,697 Trainable params: 297,697 Non-trainable params: 0 __________________________________________________________________________________________________With residual connections, you can build networks of arbitrary depth, without havingto worry about va
…
ture maps is by independently plotting the contents of every channel as a 2Dimage. Let’s start by loading the model that you saved in section 8.2:>>> from tensorflow import keras>>> model = keras.models.load_model( \"convnet_from_scratch_with_augmentation.keras\")>>> model.summary()Model: \"model_1\" _________________________________________________________________Layer (type) Output Shape Param # =================================================================input_2 (InputLayer) [(None, 180, 180, 3)] 0 _________________________________________________________________sequential (Sequential) (None, 180, 180, 3) 0 _________________________________________________________________ rescaling_1 (Rescaling) (None, 180, 180, 3) 0 _________________________________________________________________conv2d_5 (Conv2D) (None, 178, 178, 32) 896 _________________________________________________________________max_pooling2d_4 (MaxPooling2 (None, 89, 89, 32) 0 _________________________________________________________________conv2d_6 (Conv2D) (None, 87, 87, 64) 18496 _________________________________________________________________max_pooling2d_5 (MaxPooling2 (None, 43, 43, 64) 0 _________________________________________________________________conv2d_7 (Conv2D) (None, 41, 41, 128) 73856 _________________________________________________________________max_pooling2d_6 (MaxPooling2 (None, 20, 20, 128) 0 _________________________________________________________________conv2d_8 (Conv2D) (None, 18, 18, 256) 295168 _________________________________________________________________max_pooling2d_7 (MaxPooling2 (None, 9, 9, 256) 0 _________________________________________________________________ 263Interpreting what convnets learnconv2d_9 (Conv2D) (None, 7, 7, 256) 590080 _________________________________________________________________flatten_1 (Flatten) (None, 12544) 0 _________________________________________________________________dropout (Dropout) (None, 12544) 0 _________________________________________________________________dense_1 (Dense) (None, 1) 12545 =================================================================Total params: 991,041 Trainable params: 991,041 Non-trainable params: 0 _________________________________________________________________Next, we’ll get an input image—a picture of a cat, not part of the images the networkwas trained on.from tensorflow import keras import numpy as np img_path = keras.utils.get_file( fname=\"cat.jpg\
…
array as data, offsetby some amount.For instance, with data = [0 1 2 3 4 5 6 …] and sequence_length=3, you could createa dataset to predict the next step in the series by passing targets = [3 4 5 6 …]. Let’stry it:import numpy as np from tensorflow import kerasint_sequence = np.arange(10)dummy_dataset = keras.utils.timeseries_dataset_from_array( data=int_sequence[:-3], targets=int_sequence[3:], sequence_length=3, batch_size=2, )for inputs, targets in dummy_dataset: for i in range(inputs.shape[0]): print([int(x) for x in inputs[i]], int(targets[i]))This bit of code prints the following results:[0, 1, 2] 3 [1, 2, 3] 4 [2, 3, 4] 5 [3, 4, 5] 6 [4, 5, 6] 7 Generate an array of sorted integers from 0 to 9.The sequences we generate will be sampled from [0 1 2 3 4 5 6].The target for the sequence that starts at data[N] will be data[N + 3].The sequences will be 3 steps long.The sequences will be batched in batches of size 2. 287A temperature-forecasting examplesampling_rate = 6 sequence_length = 120 delay = sampling_rate * (sequence_length + 24 - 1)bat
…
og_var = layers.Dense(latent_dim, name=\"z_log_var\")(x) encoder = keras.Model(encoder_inputs, [z_mean, z_log_var], name=\"encoder\")Its summary looks like this:>>> encoder.summary()Model: \"encoder\" __________________________________________________________________________________________________Layer (type) Output Shape Param # Connected to==================================================================================================input_1 (InputLayer) [(None, 28, 28, 1)] 0 __________________________________________________________________________________________________conv2d (Conv2D) (None, 14, 14, 32) 320 input_1[0][0]__________________________________________________________________________________________________conv2d_1 (Conv2D) (None, 7, 7, 64) 18496 conv2d[0][0]__________________________________________________________________________________________________Listing 12.24 VAE encoder networkDimensionality of the latent space: a 2D planeThe input image ends up being encoded into these two parameters. 397Generating images with variational autoencodersflatten (Flatten) (None, 3136) 0 conv2d_1[0][0]__________________________________________________________________________________________________dense (Dense) (None, 16) 50192 flatten[0][0]__________________________________________________________________________________________________z_mean (Dense) (None, 2) 34 dense[0][0]__________________________________________________________________________________________________z_log_var (Dense) (None, 2) 34 dense[0][0]==================================================================================================Total params: 69,076 Trainable params: 69,076 Non-trainable params: 0 __________________________________________________________________________________________________Next is the code for using z_mean and z_log_var, the parameters of the statistical dis-tribution assumed to have produced 
…
\"same\")(x)x = layers.Conv2DTranspose(32, 3, activation=\"relu\", strides=2, padding=\"same\")(x)decoder_outputs = layers.Conv2D(1, 3, activation=\"sigmoid\", padding=\"same\")(x) decoder = keras.Model(latent_inputs, decoder_outputs, name=\"decoder\")Its summary looks like this:>>> decoder.summary()Model: \"decoder\" _________________________________________________________________Layer (type) Output Shape Param # =================================================================input_2 (InputLayer) [(None, 2)] 0 _________________________________________________________________dense_1 (Dense) (None, 3136) 9408 Listing 12.25 Latent-space-sampling layer Listing 12.26 VAE decoder network, mapping latent space points to imagesDraw a batch ofrandom normalvectors.Apply the VAEsamplingformula. Input where we’ll feed zProduce the same number of coefficients that wehad at the level of the Flatten layer in the encoder.Revert the Flatten layer of the encoder.Revert theConv2D layersof the encoder.The output ends up with shape (28, 28, 1). 398CHAPTER 12Generative deep learning_________________________________________________________________reshape (Reshape) (None, 7, 7, 64) 0 _________________________________________________________________conv2d_transpose (Conv2DTran (None, 14, 14, 64) 36928 _________________________________________________________________conv2d_transpose_1 (Conv2DTr (None, 28, 28, 32) 18464 _________________________________________________________________conv2d_2 (Conv2D) (None, 28, 28, 1) 289 =================================================================Total params: 65,089 Trainable params: 65,089 Non-trainable params: 0 _________________________________________________________________Now let’s create the VAE model itself. This is your first example of a model that isn’tdoing supervised learning (an autoencoder is an example of self-supervised learning,because it uses its inputs a
…
me\"), layers.LeakyReLU(alpha=0.2), layers.Conv2D(128, kernel_size=4, strides=2, padding=\"same\"), layers.LeakyReLU(alpha=0.2), layers.Conv2D(128, kernel_size=4, strides=2, padding=\"same\"), layers.LeakyReLU(alpha=0.2), layers.Flatten(), layers.Dropout(0.2), layers.Dense(1, activation=\"sigmoid\"), ], name=\"discriminator\",)Here’s the discriminator model summary:>>> discriminator.summary()Model: \"discriminator\" _________________________________________________________________Layer (type) Output Shape Param # =================================================================conv2d (Conv2D) (None, 32, 32, 64) 3136 _________________________________________________________________leaky_re_lu (LeakyReLU) (None, 32, 32, 64) 0 _________________________________________________________________conv2d_1 (Conv2D) (None, 16, 16, 128) 131200 _________________________________________________________________leaky_re_lu_1 (LeakyReLU) (None, 16, 16, 128) 0 _________________________________________________________________conv2d_2 (Conv2D) (None, 8, 8, 128) 262272 _________________________________________________________________leaky_re_lu_2 (LeakyReLU) (None, 8, 8, 128) 0 _________________________________________________________________flatten (Flatten) (None, 8192) 0 _________________________________________________________________dropout (Dropout) (None, 8192) 0 _________________________________________________________________dense (Dense) (None, 1) 8193 =================================================================Total params: 404,801 Trainable params: 404,801 Non-trainable params: 0 _________________________________________________________________Listing 12.34 The GAN discriminator network One dropout layer: an important trick! 407Introduction to generative adversarial networks12.5.5 The generatorNext, let’s develop a generator model that t
…
same\"), layers.LeakyReLU(alpha=0.2), layers.Conv2DTranspose(256, kernel_size=4, strides=2, padding=\"same\"), layers.LeakyReLU(alpha=0.2), layers.Conv2DTranspose(512, kernel_size=4, strides=2, padding=\"same\"), layers.LeakyReLU(alpha=0.2), layers.Conv2D(3, kernel_size=5, padding=\"same\", activation=\"sigmoid\"), ], name=\"generator\",)This is the generator model summary:>>> generator.summary()Model: \"generator\" _________________________________________________________________Layer (type) Output Shape Param # =================================================================dense_1 (Dense) (None, 8192) 1056768 _________________________________________________________________reshape (Reshape) (None, 8, 8, 128) 0 _________________________________________________________________conv2d_transpose (Conv2DTran (None, 16, 16, 128) 262272 _________________________________________________________________leaky_re_lu_3 (LeakyReLU) (None, 16, 16, 128) 0 _________________________________________________________________conv2d_transpose_1 (Conv2DTr (None, 32, 32, 256) 524544 _________________________________________________________________leaky_re_lu_4 (LeakyReLU) (None, 32, 32, 256) 0 _________________________________________________________________conv2d_transpose_2 (Conv2DTr (None, 64, 64, 512) 2097664 _________________________________________________________________leaky_re_lu_5 (LeakyReLU) (None, 64, 64, 512) 0 _________________________________________________________________conv2d_3 (Conv2D) (None, 64, 64, 3) 38403 =================================================================Total params: 3,979,651 Trainable params: 3,979,651 Non-trainable params: 0 _________________________________________________________________Listing 12.35 GAN generator networkThe latent space will be made of 128-dimensional vectors.Produce the same number of coefficients we had at the level of the Flatten layer in the encoder.Rever
…
